NonSymmetryEncodingRBM/L_16_T_4.0_nonsymmRBM.pt (torch, 265613 bytes, 3 tensors)

W f4 [256, 256]
0	0x3e8a539a	0.27016908
1	0x3e8a1504	0.2696916
2	0xbea8aba5	-0.32943454
3	0xbe1c9745	-0.1529208
4	0xbe7290d8	-0.23688066
5	0x3e2a425f	0.16626881
6	0x3dd4c3fa	0.10388942
7	0x3f0b3b80	0.54387665
8	0x3f126244	0.5718119
9	0x3eea593d	0.45771208
10	0xbd42f4d4	-0.047596768
11	0x3e598cba	0.21245089
12	0xbe82901c	-0.25500572
13	0xbf3116a5	-0.6917518
14	0xbe1a8a55	-0.15091832
15	0x3ce05f21	0.027389111
16	0x3d677133	0.05650444
17	0xbea032dc	-0.31288803
18	0xbf01753b	-0.50569504
19	0xbe270879	-0.16311826
20	0xbe8c99d7	-0.2746112
21	0xbe251ebe	-0.16125008
22	0x3e813d41	0.25242046
23	0x3f18dd60	0.5971279
24	0x3edd542f	0.4322829
25	0x3e3cecd9	0.18449725
26	0xbe9d39d3	-0.3070818
27	0xbcbc1572	-0.022959445
28	0xbe38e901	-0.18057634
29	0xbe6c84f6	-0.23097596
30	0x3c9259cd	0.017865086
31	0x3eef3e0a	0.4672702
32	0xbef90bed	-0.4864191
33	0xbe0d4cbd	-0.13798805
34	0x3eba2cdd	0.36362353
35	0x3ebcdf63	0.3688918
36	0xbdbee730	-0.09321439
37	0x3e0bd02e	0.13653633
38	0x3e0d7e00	0.13817596
39	0x3f398eda	0.724836
40	0x3ef95649	0.48698643
41	0xbe124cc6	-0.14287099
42	0xbf405ed9	-0.75144726
43	0xbeb5ac34	-0.35482943
44	0xbf256a02	-0.6461488
45	0xbe2034a0	-0.15645075
46	0xbecae53c	-0.39628017
47	0xbf470d05	-0.7775424
48	0x3ebdfc21	0.37106422
49	0x3e6c9f0d	0.23107548
50	0x3ec58507	0.38578054
51	0x3e25a2d9	0.16175403
52	0x3da68c81	0.08132268
53	0xbe0aabca	-0.13542095
54	0x3e9ad2a8	0.30238843
55	0x3e8dbcfe	0.27683252
56	0x3db07003	0.086151145
57	0xbf158eb2	-0.5842086
58	0x3d021607	0.03175929
59	0x3eb50f46	0.35363215
60	0xbe888c06	-0.2666933
61	0x3db30287	0.087407164
62	0xbeb9e664	-0.36308587
63	0x3d4dc1ac	0.050233528
64	0x3dce9ffe	0.1008911
65	0x3e53200a	0.2061769
66	0x3ec632b7	0.38710567
67	0x3deca901	0.115556724
68	0xbd64925c	-0.05580364
69	0xbedbffb3	-0.4296852
70	0xbd19cfe0	-0.03755176
71	0xbf43b787	-0.76451916
72	0xbf05f491	-0.52326304
73	0xbf61a8cd	-0.88148195
74	0xbe6dcc29	-0.23222412
75	0xbe2b42e0	-0.1672473
76	0xbe58588a	-0.21127525
77	0x3eda8979	0.42683008
78	0x3e663edc	0.22484916
79	0x3c839b8b	0.01606538
80	0xbe9412e2	-0.28920656
81	0xbeaf2bab	-0.34213004
82	0x3dd0821c	0.101810664
83	0xbed2403a	-0.41064626
84	0xbf1d7f43	-0.6152231
85	0xbe11edd7	-0.14250885
86	0xbe217abc	-0.15769476
87	0xbec3199d	-0.3810548
88	0xbe2b155c	-0.16707367
89	0xbf66c217	-0.9013991
90	0x3e46a180	0.19397545
91	0xbe95f189	-0.2928584
92	0xbf38c112	-0.721696
93	0x3e006862	0.12539819
94	0x3f2525a1	0.6451054
95	0xbeae76c0	-0.34074974
96	0x3e6cdc82	0.23130992
97	0xbe0ba810	-0.1363833
98	0xbc86afb4	-0.016441204
99	0xbec4d2aa	-0.38441974
100	0x3e145ea0	0.14489222
101	0x3f3b9668	0.73276377
102	0x3ea4ad24	0.32163346
103	0xbe24af2e	-0.16082451
104	0xbe62a036	-0.22131428
105	0x3e6e53a2	0.23274091
106	0x3f6561eb	0.89602536
107	0x3f0ed300	0.5579071
108	0x3ef3b0df	0.4759588
109	0xbe942574	-0.28934824
110	0x3e01fbf9	0.12693776
111	0xbf1cb8b3	-0.6121933
112	0x3e336997	0.17520748
113	0x3daeb78e	0.08531104
114	0x3dd0e918	0.10200709
115	0x3f19fb7f	0.6014938
116	0x3e045964	0.12924725
117	0x3d673120	0.056443334
118	0x3d4290f7	0.04750153
119	0xbe9ad358	-0.30239367
120	0xbea21a00	-0.3166046
121	0xbd081a52	-0.033228226
122	0x3eaaf7ce	0.33392185
123	0xbc235786	-0.009969598
124	0x3ee6cb65	0.45077053
125	0xbe89e5c3	-0.26933107
126	0xbe5f549a	-0.21809617
127	0x3d98625b	0.07440635
128	0xbe7adee7	-0.24499093
129	0x3e44cb04	0.1921807
130	0x3b76e67d	0.0037674003
131	0x3f3db23a	0.7410008
132	0x3ef75c08	0.48312402
133	0x3e97cde2	0.29649264
134	0xbebce28a	-0.36891586
135	0x3eae38d9	0.34027746
136	0x3ebc84f1	0.36820176
137	0x3cd469b6	0.025929313
138	0xbc77d83d	-0.015127239
139	0xbea0127d	-0.31264105
140	0x3e862c0a	0.26205474
141	0x3e332044	0.17492777
142	0x3edcdcb1	0.43137124
143	0x3ebfaf6e	0.3743853
144	0xbf27b289	-0.655068
145	0x3e740de6	0.23833427
146	0x3e420f0a	0.1895105
147	0x3f46b6b0	0.7762251
148	0x3f33714d	0.7009476
149	0x3ebc4c67	0.3677704
150	0xbe74741c	-0.23872417
151	0xbd2648c6	-0.040596746
152	0x3f13196c	0.57460666
153	0x3edb8db6	0.42881554
154	0xbe273438	-0.16328514
155	0xbef1f0f3	-0.47254142
156	0x3ec3bd9f	0.38230607
157	0x3e581d59	0.21104945
158	0x3dd8a315	0.105779804
159	0xbe84087a	-0.25787717
160	0x3c59962e	0.0132804345
161	0x3f7afb3a	0.9803959
162	0xbd910ebe	-0.0708289
163	0x3f027f15	0.5097516
164	0x3f3bf167	0.73415226
165	0x3e781eda	0.24230519
166	0x3e23ba60	0.15989065
167	0x3cf9cc4d	0.030492926
168	0x3eafe4f9	0.3435438
169	0xbe45f9e1	-0.19333602
170	0x3ebfd76b	0.37469038
171	0xbe8ec481	-0.27884296
172	0xbed18d72	-0.40928227
173	0xbcab0573	-0.020876622
174	0x3d720f5c	0.05909668
175	0xbf294157	-0.66115326
176	0x3f0dafac	0.5534618
177	0x3e8f8b01	0.2803574
178	0x3e28fff8	0.16503894
179	0x3e86634b	0.2624763
180	0x3e958c81	0.29208758
181	0xbe3ab3ad	-0.18232603
182	0xbedbc99c	-0.42927253
183	0xbf1c41d6	-0.6103796
184	0x3e823990	0.25434542
185	0xbe012ccf	-0.1261475
186	0x3ce4317e	0.027855631
187	0xbf352170	-0.70754147
188	0xbed63ea5	-0.4184467
189	0x3e3b346d	0.18281718
190	0xbdd42501	-0.103586204
191	0x3d633aa6	0.055475853
192	0xbe2d5a08	-0.16928875
193	0xbe9eb552	-0.3099771
194	0xbe2a1d4a	-0.16612735
195	0xbe980bac	-0.29696405
196	0xbe1ff7d9	-0.1562189
197	0x3e1e48b7	0.15457426
198	0xbef50297	-0.47853538
199	0xbf260aa2	-0.64859974
200	0x3e385e52	0.1800473
201	0x3ecc7153	0.3993021
202	0xbe90bbaf	-0.2826819
203	0xbedc626a	-0.43043834
204	0xbf0cdf19	-0.5502792
205	0xbeb05406	-0.34439105
206	0xbeab359b	-0.33439335
207	0x3d9b8cdb	0.075952254
208	0x3efb1ec8	0.49046922
209	0xbe299dca	-0.16564098
210	0xbeed4ab6	-0.46346062
211	0xbea84fa1	-0.32873252
212	0x3d15efdc	0.0366057
213	0x3e0e25aa	0.13881555
214	0xbedb5e87	-0.42845556
215	0xbeb9a125	-0.36255756
216	0x3d86f98b	0.06590565
217	0x3d2dc6ea	0.042426027
218	0x3e2d8c12	0.16947964
219	0xbe3692bd	-0.17829414
220	0xbe8ca558	-0.27469897
221	0x3f1004f9	0.5625759
222	0x39fe90d1	0.00048554552
223	0x3ed22929	0.41047028
224	0xbb5f298b	-0.003405186
225	0xbe94333a	-0.28945333
226	0x3cbe8161	0.023255052
227	0xbee262fd	-0.44216147
228	0xbed708b2	-0.41998821
229	0x3c9c2529	0.019060688
230	0xbd3fae8b	-0.046797317
231	0xbed348f0	-0.41266584
232	0xbcb958ae	-0.022625294
233	0xbeb4232c	-0.35183084
234	0x3ddff7fb	0.109359704
235	0x3e9b7f89	0.3037074
236	0xbdb7193c	-0.0894036
237	0x3ed1d8ed	0.40985814
238	0x3dac06b8	0.08399719
239	0x3e82b650	0.25529718
240	0x3da37fd8	0.07983369
241	0x3ed2f013	0.41198787
242	0x3f168eb5	0.58811504
243	0x3e5c8faf	0.21539186
244	0xbea4b10e	-0.32166332
245	0x3b89156b	0.0041834614
246	0x3cec6b99	0.0288599
247	0x3eec7b73	0.46187934
248	0x3f2058d0	0.6263552
249	0xbe89271b	-0.26787648
250	0xbf070da4	-0.5275519
251	0xbf09303a	-0.5358921
252	0xbef3e477	-0.47635242
253	0xbe152d53	-0.14568071
254	0xbe2eaa3f	-0.17057131
255	0xbf3078d5	-0.68934375

v_bias f4 [256]
0	0x3dd947cd	0.10609398
1	0x3fa54891	1.291277
2	0x3fe6dbeb	1.8035864
3	0x4027b253	2.620259
4	0x3fca28c4	1.5793691
5	0x3fc61967	1.5476502
6	0x40257a69	2.5855963
7	0x3fa51663	1.2897457
8	0x3fd058dd	1.6277119
9	0x3f18c48a	0.59674895
10	0x3fe4c253	1.7871803
11	0x402f693a	2.7407975
12	0x3ee072a2	0.43837458
13	0xbec824c6	-0.39090556
14	0x3fbaed6c	1.4603705
15	0x3fef4ccf	1.8695315
16	0xbf174fcf	-0.59106153
17	0x4017a753	2.3695877
18	0x404d8c8a	3.2117028
19	0x3f9d1459	1.2271835
20	0x3d82d0c5	0.06387476
21	0x3fc800d6	1.5625255
22	0x3eb58d20	0.35459232
23	0x3fadd2c6	1.3579948
24	0x3f8efedb	1.1171526
25	0xbead99c9	-0.3390639
26	0x3fa1d6ec	1.2643714
27	0x405e6ef7	3.4755228
28	0xbeb06657	-0.3445308
29	0x3fa728c9	1.3059322
30	0x4012a637	2.291395
31	0xbf144982	-0.57924664
32	0x3fdcb1f5	1.7241808
33	0xbfa1d6ee	-1.2643716
34	0x3ee22084	0.44165432
35	0x3ff8b1ec	1.9429297
36	0x405df20a	3.467898
37	0xbe13d80d	-0.14437886
38	0x3f774b94	0.965997
39	0xbf5c86eb	-0.8614337
40	0x3fb23f51	1.3925573
41	0x3f8ab648	1.0836878
42	0x406caeed	3.6981766
43	0xbd5458f5	-0.05184265
44	0x3f31e95d	0.6949671
45	0x3f73996d	0.95155984
46	0xbf644137	-0.8916201
47	0x40715148	3.770586
48	0x3ee84990	0.45368624
49	0x3f48fbc4	0.78509164
50	0x3ebad127	0.36487696
51	0x3fb9717e	1.448776
52	0x3ec5e764	0.386531
53	0x3f9228d6	1.1418712
54	0x402c024d	2.6876404
55	0x400bf4f4	2.1868258
56	0x40271011	2.6103556
57	0x3d18541a	0.03718958
58	0x406634a3	3.5969627
59	0x3fa70c21	1.3050576
60	0x3eca7ef8	0.39549994
61	0x3ea12aec	0.3147806
62	0x3f281c97	0.65668625
63	0x3f98759a	1.1910889
64	0x3fc94364	1.5723691
65	0x3fb50c1b	1.4144319
66	0xbb56ed46	-0.0032795235
67	0x4093fc0d	4.624518
68	0x402f5fda	2.7402253
69	0x40847e30	4.1404037
70	0x3f970f3c	1.1801524
71	0x3fea86ef	1.8322428
72	0xbe644143	-0.2229052
73	0xbfae53be	-1.3619306
74	0x4003e597	2.060888
75	0xbec99983	-0.39374933
76	0x3f8d01ef	1.1016215
77	0x3f1928fc	0.5982816
78	0x3febdeff	1.8427428
79	0x3f9ad6e6	1.2096832
80	0x4024d349	2.5753958
81	0xc00666db	-2.1000278
82	0x40096049	2.1465018
83	0x3fd3b509	1.6539623
84	0xbf67ba12	-0.90518296
85	0x3fa0ffd2	1.257807
86	0x4065ae64	3.588769
87	0x40041aef	2.064144
88	0xbff39949	-1.9031154
89	0xbf699344	-0.91240335
90	0xbe97a5cb	-0.29618677
91	0x3de3970a	0.11112793
92	0x3fd4208d	1.6572434
93	0x3f8d749d	1.1051213
94	0x3fe5b60e	1.7946184
95	0x403ed46b	2.981715
96	0x4026a1e1	2.6036303
97	0x403c73ae	2.9445605
98	0x40894dd8	4.2907524
99	0x40260966	2.5943236
100	0x3ddfff6d	0.109373905
101	0xbf4778bf	-0.7791862
102	0x3f394daa	0.7238413
103	0x40067b68	2.1012821
104	0x4012d954	2.2945147
105	0xbeb082d8	-0.34474826
106	0x3f73b606	0.9519962
107	0x3f989261	1.1919671
108	0xbf4659e7	-0.7748093
109	0xbfadaefb	-1.3569025
110	0x40257c20	2.585701
111	0x4003e980	2.0611267
112	0x4009cf41	2.1532748
113	0x40136550	2.3030586
114	0x3fa32ef4	1.2748704
115	0x3f52abd3	0.8229343
116	0xbe737c61	-0.23777916
117	0x3f8ccfc1	1.1000901
118	0xbf2d1882	-0.6761552
119	0x3ebbefa4	0.3670627
120	0xbf232eed	-0.6374348
121	0x3f591c67	0.84808964
122	0xbe2cb42e	-0.16865608
123	0x3f6a8731	0.91612536
124	0x4010ce40	2.2625885
125	0x3f307497	0.689279
126	0x3f81c07d	1.0136868
127	0xbde3249d	-0.11090968
128	0xbf6e1c72	-0.93012154
129	0xbf53ca71	-0.82730776
130	0x40012056	2.0175986
131	0x3f20c68e	0.6280297
132	0xbf9d468e	-1.2287157
133	0xbf2c9738	-0.6741824
134	0x406102e6	3.515802
135	0xbe9ccc7b	-0.30624756
136	0xbfb2b925	-1.3962752
137	0x40271449	2.610613
138	0xc009ace0	-2.1511765
139	0xbeeee579	-0.4665945
140	0x400891f0	2.1339073
141	0xbea5dee0	-0.32396603
142	0xbf51b7ed	-0.81921273
143	0x3f838b29	1.0276843
144	0xbe60ab09	-0.21940245
145	0x400f0020	2.2343826
146	0x3ff3c45a	1.9044297
147	0x3f9c8c27	1.2230271
148	0x40245245	2.5675213
149	0xbe368fe1	-0.17828323
150	0x3f07e95c	0.53090453
151	0x3e0c002c	0.1367194
152	0x3ea6a7d6	0.32549924
153	0x4060f361	3.5148547
154	0xbedd16f1	-0.43181565
155	0x3edb6860	0.4285307
156	0xbfb28e2f	-1.3949641
157	0xbf1cf7b4	-0.61315465
158	0x40460cdc	3.0945349
159	0x40415d46	3.021318
160	0x3f78a39d	0.97124654
161	0xbefb1ab5	-0.49043813
162	0x403e9952	2.978108
163	0xbd451dec	-0.04812424
164	0x3e16c002	0.14721683
165	0x3f947497	1.159808
166	0x3f64b3fe	0.89337146
167	0x4045b8f2	3.0894132
168	0x4047a4db	3.119437
169	0x3fd67aa9	1.6756183
170	0x3fe101d2	1.757868
171	0x3f282ade	0.6569041
172	0x3fda1e81	1.7040559
173	0x3e90b404	0.2826234
174	0x3fc66119	1.5498382
175	0x3fef4253	1.8692116
176	0x4003fa70	2.0621605
177	0x3f84a2cb	1.036218
178	0x3e1a1ba9	0.15049614
179	0x3f886a5d	1.065746
180	0x40571b41	3.3610384
181	0xbf2c7ae0	-0.6737499
182	0x3fcb6435	1.5889956
183	0x3f0e59fb	0.5560605
184	0xbfb6f37e	-1.4293058
185	0xbee4b41a	-0.44668657
186	0x3d87be54	0.06628099
187	0x3f98f6a5	1.195027
188	0xbf994c97	-1.1976498
189	0x3f98674f	1.1906527
190	0x3f993000	1.1967773
191	0xbfbef58f	-1.4918689
192	0x3fd1694a	1.6360257
193	0x3ec824b4	0.39090502
194	0xbfa201d7	-1.2656811
195	0xbfea7faf	-1.8320216
196	0x402a576a	2.6615853
197	0x4061b383	3.5265815
198	0x3fcc5f0d	1.5966507
199	0x4040bbf5	3.011472
200	0xbe361cd2	-0.17784432
201	0x3d222dda	0.03959451
202	0x3f95f07d	1.1714016
203	0x3fbad7e2	1.4597132
204	0x3fa33d4a	1.2753079
205	0x3f48fbb9	0.785091
206	0x402199de	2.5250163
207	0xbf619f56	-0.8813375
208	0x40069d93	2.1033676
209	0x3fe96832	1.8234923
210	0x3fdafcb3	1.7108368
211	0x3f2e621a	0.6811844
212	0x3f136432	0.5757476
213	0x402fb886	2.7456374
214	0xbfcf2496	-1.618304
215	0xc022b0bf	-2.5420377
216	0x3fbd55d7	1.4791821
217	0x3f9e24c7	1.2354974
218	0x3eebdf9d	0.4606904
219	0x3ec1df26	0.3786556
220	0x3f210e29	0.6291223
221	0x3feb81d2	1.8398993
222	0x4015abc7	2.3386095
223	0x3ed69778	0.41912436
224	0x400eeb62	2.2331166
225	0x401e7a28	2.4762058
226	0x40363a40	2.8473053
227	0x4002c717	2.0434015
228	0x3fd70a08	1.6799936
229	0x40030ca5	2.0476468
230	0xbe991aae	-0.29903167
231	0x3fb71e8f	1.4306201
232	0x3fa4382b	1.2829641
233	0x3ff47cec	1.9100623
234	0x40110e63	2.266503
235	0x3ffc9424	1.9732709
236	0x3dcaf24b	0.09909495
237	0x3f51b816	0.8192152
238	0xbf485e21	-0.7826863
239	0x3f644fa4	0.8918402
240	0x3f82ed77	1.0228719
241	0x40817330	4.045311
242	0x3f369d8a	0.71334136
243	0x3d14be42	0.036314256
244	0xbceabfec	-0.028655969
245	0x3f522acf	0.8209657
246	0x40499698	3.1498165
247	0xbd4b60fb	-0.049653035
248	0x3f3f3d57	0.7470297
249	0x3f5e6e72	0.86887276
250	0x3f4c01d8	0.79690313
251	0x3fcaa2a3	1.5830883
252	0x3f7aef72	0.98021615
253	0x3efae108	0.4899981
254	0x3f072f0a	0.5280615
255	0xbdb56e2e	-0.08858906

h_bias f4 [256]
0	0x3f18d3e5	0.59698325
1	0x4001c5fb	2.0277088
2	0x408bbaa4	4.3665333
3	0xc01bd389	-2.434786
4	0x3f3a98cf	0.7288942
5	0x40c3e312	6.1214685
6	0x409d593a	4.917142
7	0x40851b9f	4.1596217
8	0x407cb704	3.9486704
9	0xc0789a29	-3.8844092
10	0x4068abd6	3.635488
11	0xc09738c6	-4.7256804
12	0x408d2763	4.411058
13	0xc0659159	-3.5869963
14	0x40201e37	2.5018442
15	0x408b1fa8	4.3476143
16	0x3fbce5e1	1.4757653
17	0x4020cad2	2.5123792
18	0xbf78ee8d	-0.97239
19	0x4060dd10	3.5134926
20	0x409a481e	4.8213034
21	0x40a6d1d8	5.2131157
22	0xc09166ae	-4.543784
23	0xc053453d	-3.301101
24	0xbedb8b48	-0.428797
25	0x409ebf29	4.960835
26	0x4088335c	4.2562695
27	0xc061b6c9	-3.5267813
28	0xbd56c7b0	-0.05243653
29	0xbca710fd	-0.020393843
30	0x4052101f	3.282234
31	0xc045eaca	-3.0924554
32	0xbed3e1a3	-0.41383085
33	0x400e39c0	2.2222748
34	0x3f491ff0	0.7856436
35	0x408b4a27	4.352802
36	0x3f8f295c	1.1184497
37	0x40170816	2.3598685
38	0x40974ee5	4.7283807
39	0xc00c355d	-2.190757
40	0x3fad8d6d	1.3558785
41	0x3e86be8d	0.26317254
42	0x3ebfa576	0.37430924
43	0x406609bf	3.5943449
44	0x40793edb	3.8944614
45	0x408c86c7	4.3914523
46	0xbc58c45d	-0.01323041
47	0x40a8f9a2	5.2804728
48	0x4000076d	2.0004532
49	0x4081b06c	4.052786
50	0xbff8c449	-1.9434901
51	0x40ce6d80	6.4508667
52	0x405d8438	3.461195
53	0x400ec24d	2.2306092
54	0x4025f103	2.5928352
55	0x408f0855	4.469767
56	0xc01c176a	-2.438929
57	0xc064af0b	-3.5731838
58	0x4001e8cf	2.0298345
59	0x40afb7d4	5.49119
60	0x4091401f	4.5390773
61	0x409a4160	4.8204803
62	0xc10cac28	-8.79203
63	0x40b022eb	5.5042624
64	0x3f4ce91d	0.800432
65	0x4098243e	4.754424
66	0x40522c1e	3.2839427
67	0x40a619b0	5.1906357
68	0x405f9675	3.4935582
69	0xbf4612b1	-0.7737227
70	0x3fc45e16	1.5341213
71	0xc0bbda22	-5.8703775
72	0xc0225982	-2.5367131
73	0x3eb42d60	0.35190868
74	0xbe7cd0b2	-0.24688986
75	0x4083b58b	4.115911
76	0x408e926c	4.455374
77	0x4004c71d	2.074653
78	0x3fda0f26	1.7035873
79	0x3facb8b8	1.3493872
80	0xc0fb1896	-7.846751
81	0x40880e62	4.2517557
82	0x40fbbf6d	7.8671174
83	0x3f705094	0.9387295
84	0x40c2b7fc	6.084959
85	0x407c6813	3.9438522
86	0x408283a9	4.078572
87	0x3f8818ca	1.0632565
88	0x40621351	3.532429
89	0x3fd552bb	1.6665872
90	0x3fdff5f4	1.7496934
91	0x3f4143bf	0.75494
92	0x3facbaf8	1.3494558
93	0x3cce414e	0.025177624
94	0x3ff6e8d2	1.9289801
95	0x3f413ebf	0.7548637
96	0x3fb8bc48	1.4432459
97	0x402d9323	2.7121055
98	0x3e3f9568	0.18709338
99	0xbd8ba45f	-0.06818461
100	0x405f4615	3.4886525
101	0x3fdbe201	1.7178346
102	0xc084ba54	-4.147745
103	0xbe1bc3f9	-0.15211476
104	0x405736f5	3.3627293
105	0x3f6bfc9a	0.92182314
106	0x40137419	2.303961
107	0xc0d37171	-6.607598
108	0x40458e7a	3.086821
109	0x40891a0d	4.28443
110	0x3fb945f1	1.447447
111	0xbea84aaf	-0.3286948
112	0x3f92fbde	1.1483114
113	0xc08a9255	-4.330363
114	0x40a33da8	5.1012764
115	0x40cda58b	6.426458
116	0x3f4f9d6b	0.81099576
117	0xbe9d0d90	-0.3067441
118	0x40657656	3.5853477
119	0xbdf9a715	-0.121900715
120	0x4011734d	2.2726624
121	0xc00e0197	-2.218847
122	0x3fa39914	1.2781091
123	0x3deebe93	0.11657443
124	0xc039fcf5	-2.9060643
125	0x40840991	4.126168
126	0xbf3c99e7	-0.73672336
127	0xc0196578	-2.3968182
128	0xc0a55a41	-5.1672673
129	0xc0b11e45	-5.534945
130	0x402e2477	2.7209756
131	0x40cde7a4	6.4345264
132	0x3f8c86f5	1.0978686
133	0x404ef112	3.2334638
134	0xc0261ce4	-2.5955133
135	0xbf135910	-0.57557774
136	0x40c1e4e0	6.059189
137	0x402f4c27	2.739023
138	0xbfc4891c	-1.5354342
139	0x40761631	3.8451045
140	0x3f30580d	0.68884355
141	0x3f087604	0.5330508
142	0x409bd0a8	4.8692207
143	0x4085a1ef	4.1760173
144	0xc0e1d570	-7.0573044
145	0x4090ef2c	4.529196
146	0x3ef66050	0.48120356
147	0x40187cdb	2.3826206
148	0xc0a6f1ad	-5.2170014
149	0x408dbbc3	4.42917
150	0x3fa9c7f9	1.3264152
151	0x3fea77f8	1.8317862
152	0x3fcb83e6	1.5899627
153	0x40154d28	2.3328342
154	0x3dd3deec	0.10345253
155	0x40527d4b	3.2888973
156	0x4040b728	3.011179
157	0x3fe82ca6	1.8138626
158	0xc09c1a97	-4.878246
159	0x40511c27	3.2673433
160	0x405f2029	3.486338
161	0x40b13064	5.537157
162	0xc00a3162	-2.159264
163	0xbf77b7c3	-0.96764773
164	0x408aa0a4	4.3321095
165	0x3ff5f41c	1.9215121
166	0xbfff70a4	-1.995625
167	0x4060ec0c	3.5144072
168	0x3e9f9de8	0.3117516
169	0x40c748d5	6.2276406
170	0x403120dc	2.7676306
171	0xc0cfb852	-6.49125
172	0xc0a94bfc	-5.2905254
173	0xbc86dfc8	-0.01646413
174	0x3ea79fe3	0.3273917
175	0x4083d9a4	4.1203175
176	0x400c23ca	2.1896844
177	0x4081a0c6	4.0508757
178	0x40945b86	4.6361723
179	0xc0306101	-2.7559206
180	0xbf46fae1	-0.7772656
181	0xc030a887	-2.760286
182	0x3f003c82	0.5009233
183	0x4036e5c5	2.857774
184	0x40c6ff97	6.2187
185	0x3e94e779	0.2908285
186	0x40b19b03	5.5501723
187	0xc0becd7f	-5.962585
188	0xc1120d8e	-9.128309
189	0xc07f9802	-3.9936528
190	0x4023bd35	2.5584233
191	0x3f366446	0.71246755
192	0x40b9e1ba	5.8088045
193	0x3fe0b347	1.7554711
194	0xbf33c980	-0.7022934
195	0xc0291464	-2.6418695
196	0x409040dd	4.507918
197	0x3eeabd99	0.45847777
198	0x3fbad3fc	1.4595942
199	0xc03598e6	-2.8374572
200	0x40ada7f8	5.426754
201	0xc0891a5c	-4.2844677
202	0x3f83ccd0	1.0296879
203	0xbe8448fb	-0.2583693
204	0xbf01d2f6	-0.50712526
205	0x4096d4e8	4.7134895
206	0x3ef31de3	0.4748374
207	0x3fb8d187	1.4438943
208	0xbf484fe0	-0.7824688
209	0x4081c1ca	4.054906
210	0xc10ebb7f	-8.920775
211	0x3f1b9506	0.60774267
212	0x405ebf41	3.4804232
213	0x402b97b0	2.6811333
214	0xbf61d587	-0.8821644
215	0x4085b688	4.1785316
216	0xc01e8e45	-2.4774334
217	0x404481c7	3.070421
218	0xc0ecc440	-7.3989563
219	0x4070bf7b	3.761687
220	0x400df68f	2.2181737
221	0x40409f6b	3.00973
222	0x408792c1	4.2366643
223	0x402550d4	2.5830584
224	0xbf3baa13	-0.7330639
225	0x404cf0fc	3.2022085
226	0x3f4c32f4	0.7976525
227	0xbc2644f5	-0.010148277
228	0xbf7b37c7	-0.98131984
229	0x4004e419	2.076422
230	0xc102efca	-8.183542
231	0xc0571650	-3.3607368
232	0xbf004ac2	-0.5011407
233	0x40f919c2	7.7843943
234	0xbf3fd666	-0.7493652
235	0x405012da	3.2511506
236	0x3f270e08	0.65255785
237	0xbef5cda7	-0.48008463
238	0x3f1cea33	0.6129486
239	0x401cc8d1	2.4497569
240	0x400844c4	2.1291971
241	0xc037b7f3	-2.8706024
242	0xc02d4463	-2.707299
243	0xc0352fc9	-2.8310416
244	0x408f09fd	4.4699693
245	0x408c845c	4.391157
246	0x3e962f61	0.29333022
247	0xbf09715b	-0.5368859
248	0xc0a4aca6	-5.1460752
249	0x3fb0e9f5	1.3821398
250	0xbf749776	-0.9554361
251	0x40118670	2.2738304
252	0x40a96c66	5.294482
253	0x40194266	2.3946776
254	0x4026caed	2.6061356
255	0xbf258424	-0.64654756
