NonSymmetryEncodingRBM/L_6_T_4.0_nonsymmRBM.pt (torch, 6861 bytes, 3 tensors)

W f4 [36, 36]
000000 38 df 50 3d 22 98 ed be 9e 2f 8e be 7c 6c 09 be
       0.050994128 -0.4640513 -0.27770704 -0.1342029
000010 9f fe c1 3e 84 6a e9 3e 59 66 27 bc 05 d4 04 bf
       0.37889573 0.45589077 -0.010217273 -0.51886016
000020 b1 e4 92 be 6d 56 87 bd 81 18 f3 3e c7 20 98 3e
       -0.28690103 -0.06608281 0.47479632 0.29712507
000030 47 d6 ed 3d 4c 0b bd be 83 98 d4 be 98 a7 04 bf
       0.11613136 -0.3692268 -0.41522607 -0.5181823
000040 a6 9d 51 be f9 d1 e7 bc a9 e3 d8 3e d9 4a 86 3e
       -0.20470294 -0.028298365 0.4236119 0.2622898
000050 95 65 a3 3e 4e df aa be d3 52 49 bf 10 4a 01 bf
       0.31913438 -0.33373493 -0.78642005 -0.50503635
000060 f7 02 22 be 44 24 bd bd c3 ac de 3e c9 be ac bd
       -0.15821443 -0.09235433 0.43491182 -0.08434827
000070 fa 50 65 bf e8 5f 5c bf b2 b3 88 bd da b8 15 bf
       -0.89576685 -0.8608384 -0.06674899 -0.58485186
000080 fb 0f 81 be d7 71 8d be 6a 32 4d be 6e 4b 8e bc
       -0.25207505 -0.27625915 -0.20038763 -0.017369952
000090 cd fd 0d be 5e 6c d3 3c 13 fb 60 3e d1 09 14 3e
       -0.13866349 0.02580851 0.21970777 0.1445687
0000a0 b5 f6 52 3c a0 49 26 3e b6 d0 01 be 60 ef d3 3e
       0.012876202 0.16239023 -0.12677273 0.41393566
0000b0 d0 53 67 3e e5 90 95 be bc 19 52 be 25 e4 21 3e
       0.22590566 -0.29212108 -0.2051763 0.15809686
0000c0 7b 80 29 3f f1 dd 08 40 9e 65 a1 3f fc 93 86 bd
       0.6621167 2.1385462 1.2609136 -0.065711945
0000d0 2e e6 16 be 51 4b 6e 3e 87 e8 b3 3e ed d2 c5 3f
       -0.14736244 0.23270918 0.35138342 1.5454994
0000e0 80 5f d4 3e 56 31 0b bf 34 79 4a be ed 9c 21 3e
       0.4147911 -0.54372156 -0.19772798 0.15782519
0000f0 79 51 7c 3e 02 8f 66 3f 22 a0 15 bd 08 9e bf be
       0.24640454 0.9006196 -0.036529668 -0.37425256
000100 83 a1 32 be 97 70 81 3e 07 3d 77 bd 96 8c 24 3e
       -0.17444424 0.25281212 -0.060360935 0.16069254
000110 f0 2d 4a ba 71 99 2f bd 96 c8 3f be d8 c8 94 bd
       -0.00077125337 -0.042870943 -0.18728861 -0.072648704
000120 28 82 b2 be 22 78 3d be cd 64 5b 3e 0b 99 e4 3e
       -0.34864926 -0.18502858 0.21425171 0.44648013
000130 f3 ab 84 be 4b 83 d5 be aa 4c c8 be 5a c8 bc be
       -0.25912437 -0.4170173 -0.3912099 -0.36871606
000140 4b f1 0d 3d f3 46 94 3d 8c 80 1d bf 4d 49 f3 be
       0.034653943 0.07240095 -0.6152427 -0.47516862
000150 14 0a 84 bc 4d ff 7d be 4d bf 27 3e 53 2f d7 3d
       -0.016118087 -0.24804421 0.16381569 0.10507073
000160 b8 85 07 bf b7 88 5a 3d bb cb b1 be f7 50 31 bf
       -0.52938414 0.053353038 -0.34725747 -0.6926417
000170 7c ea 54 be 2c 62 a2 be b6 d0 48 bf 2f 11 c5 bd
       -0.20792574 -0.31715524 -0.7844347 -0.09622418
000180 17 c6 72 be 62 0a e9 be 66 01 c3 bc d1 23 1c bd
       -0.23708378 -0.45515734 -0.023804378 -0.038120095
000190 4c 3c 04 bf 20 06 ac 3d d0 ae be bd 4d 39 53 3d
       -0.51654506 0.08399606 -0.093106866 0.05156832
0001a0 08 cc de 3e 2b 32 b2 3e f5 85 b5 be 66 f7 12 be
       0.43515038 0.348039 -0.35453764 -0.14352188
0001b0 ec ef d9 3d 1b f3 84 be 2f 69 aa bd 30 97 78 be
       0.106414646 -0.25966725 -0.083208434 -0.24276423
0001c0 0e 64 be bd 97 3b 24 3f 1e 32 cc be 8a ce 03 bf
       -0.09296428 0.64153427 -0.39881986 -0.5148703
0001d0 d8 dd 5d be 33 ea 90 be 51 1d 0f 3e 38 84 aa 3e
       -0.21666658 -0.2830368 0.13976027 0.33304
0001e0 e6 4e 63 bf 7b bd 11 bf cd 3a 4c 3e b1 56 7e 3e
       -0.88792264 -0.5692975 0.19944306 0.24837758
0001f0 0b 02 a7 3e 4e 56 77 be b5 fa 93 bf 81 ff 49 bf
       0.32618746 -0.24154016 -1.1560885 -0.78905493
000200 6c 34 87 bd be 5a 0a be dc 30 95 be 65 7e 51 bf
       -0.066017956 -0.13511178 -0.2913884 -0.8183349
000210 39 86 e5 bd 60 a0 f9 be e7 bf a0 be ca b7 d2 be
       -0.112072416 -0.4875517 -0.3139641 -0.41155845
000220 4f 0a 74 be 3c 1f ff 3b a9 32 bf 3e e6 bc 6b bd
       -0.23832057 0.007785706 0.37343338 -0.057553194
000230 de 1e b4 bb ab 2c 8b bd 7b f7 4f bd 8f 97 13 3f
       -0.0054968437 -0.06795629 -0.050773125 0.57653135
000240 c6 6b c4 3b f1 d9 a7 3c 60 d8 13 be 11 7a 12 bf
       0.005994293 0.020489665 -0.1443801 -0.5721751
000250 3c d5 e2 3c 8e 18 5e 3e 3d d0 6f bd 3f f0 3c 3e
       0.027689569 0.21689054 -0.0585482 0.18451022
000260 73 38 b6 3d d0 08 2a 3e 1b 3d 10 3f 11 46 a6 3d
       0.088974856 0.16604924 0.5634324 0.08118833
000270 54 dd f6 be 99 fa a4 bd 4b 61 3c bd f2 98 68 3e
       -0.48215735 -0.0805561 -0.045991223 0.22714594
000280 f0 f1 18 3f fc 38 34 be 0d a5 cd 3e 88 28 65 bc
       0.5974417 -0.17599863 0.40164986 -0.013986714
000290 c9 26 01 be f6 af c4 3e 98 30 89 3f 22 cd 92 3f
       -0.12612452 0.38415498 1.0717955 1.1468852
0002a0 38 2b 24 3f d0 27 d4 3e 35 68 64 3e b0 86 ff bd
       0.64128447 0.41436625 0.22305377 -0.124768615
0002b0 bd 2e dd 3e 95 df 96 3f 0b 50 67 3e 12 28 de 3e
       0.4319972 1.1786982 0.22589128 0.43389946
0002c0 35 b0 e7 3d 69 fe 2e bf ca b2 f9 be c8 e3 f9 3e
       0.11312906 -0.6835695 -0.48769218 0.48806596
0002d0 27 94 77 be c7 a6 8e 3e 10 9d 03 bf 3e 04 03 bf
       -0.2417761 0.27861616 -0.51411533 -0.5117835
0002e0 7e 14 87 bc 3c 36 db bd f5 65 91 be 6d f5 7c bd
       -0.016489264 -0.10703704 -0.283981 -0.061757494
0002f0 22 1e 95 be 98 20 bc be c2 eb bc be 03 4d ab bd
       -0.29124552 -0.36743617 -0.3689862 -0.08364298
000300 41 de 06 3b ab 3f 62 be 4c b6 c2 3e 13 87 84 3e
       0.002057925 -0.220946 0.38029706 0.25884303
000310 99 b2 b3 ba b7 22 ab 3e dc 5a 48 3f 3b c8 8d 3f
       -0.0013709842 0.33424923 0.7826364 1.107673
000320 42 00 f1 3f c8 12 b9 3f f9 18 bf 3e 7b eb 15 3f
       1.8828204 1.4458857 0.3732374 0.5856244
000330 e3 38 1f 3e ea 1e 29 3f be aa 5a 3f 77 22 d3 3e
       0.15549044 0.66062796 0.8541678 0.41237232
000340 70 61 10 be 2f 48 8e be b8 e2 0b be 9a 74 7d 3e
       -0.1409967 -0.27789447 -0.13660705 0.24751511
000350 17 65 a4 be b7 2c b2 be c1 d6 ee 3d b8 27 a4 be
       -0.32108375 -0.3479974 0.11662055 -0.32061553
000360 f9 ec 8e 3c d7 1d 46 3e 58 11 89 3f 80 c9 4f 3f
       0.017446982 0.1934732 1.0708418 0.8116684
000370 44 b0 05 3e d8 13 68 be 9a e9 af bc 9a 5c 2c 3f
       0.13055521 -0.2266382 -0.021473695 0.673288
000380 96 4e b4 3f 7b 4f 74 3f 09 c6 0c 3f d9 0c 79 be
       1.4086483 0.9543378 0.5498968 -0.24321307
000390 6c 7d 91 be e6 b7 e1 3e cf ab 3e 3f 2c 03 88 3e
       -0.28416002 0.44085616 0.7448091 0.2656492
0003a0 60 b9 83 3e 06 41 41 bf 7b 0f 39 bf 4f d2 1d be
       0.25727367 -0.7548984 -0.72289246 -0.15412258
0003b0 7b bb a2 3e 1c a9 76 3d da a9 02 3e 97 01 95 bf
       0.3178366 0.06021987 0.12760106 -1.164111
0003c0 e8 2f 0d bf 90 51 f2 be 8b d8 ad bd f0 3e 85 be
       -0.55151224 -0.47327852 -0.08488568 -0.2602458
0003d0 df 12 08 be 1a e7 7f bf 66 b5 16 3d 6e ab af bd
       -0.13288449 -0.9996201 0.03679409 -0.085776195
0003e0 31 e6 b9 3e 5d 28 0b 3e 4b cb 80 3d bf 78 c3 be
       0.36308435 0.13589616 0.06288775 -0.3817806
0003f0 55 7f 39 bf 9c 0e 82 be 8e 6e fe be f9 ee f0 bd
       -0.7245992 -0.2540177 -0.49693722 -0.117643304

v_bias f4 [36]
000000 1f 5c c7 3e b1 f5 80 3e 21 0a af 3e 57 ae b7 3e
       0.3893747 0.25187448 0.34187415 0.35875198
000010 8a eb cd 3e f4 51 d0 3e 8e f5 94 3e cc eb 8d 3e
       0.40218765 0.40687525 0.29093593 0.2771896
000020 69 c2 a9 3e 2a 33 c3 3e 21 48 ed 3e 27 71 cd 3e
       0.33156136 0.38124973 0.46344092 0.4012539
000030 50 66 ba 3e c2 1e a9 3e 9e c2 a9 3e dd 1e a9 3e
       0.36406183 0.3303128 0.33156294 0.3303136
000040 b2 d6 d7 3e e4 cc b4 3e d7 7a a4 3e 8d 70 95 3e
       0.42155987 0.3531257 0.3212497 0.29187432
000050 04 7b dc 3e d0 cc 94 3e 40 00 e0 3e f4 ad c3 3e
       0.43062603 0.2906251 0.4375019 0.38218653
000060 2f d7 ef 3e 69 70 f9 3e a0 70 ed 3e 30 e1 be 3e
       0.4684386 0.48718575 0.4637499 0.3728118
000070 c2 e0 d2 3e e7 a3 f0 3e e7 f5 cc 3e 9c 66 d6 3e
       0.41187102 0.47000048 0.4003136 0.4187516
000080 1e 0a a7 3e 0a 48 59 3e e2 28 88 3e b0 eb e1 3e
       0.32624906 0.21218887 0.2659369 0.44125128

h_bias f4 [36]
000000 1a 49 0d 40 b5 ad 3e c0 ec 99 11 40 bc 1a 1c 40
       2.2075868 -2.9793522 2.2750196 2.4391317
000010 09 5e 30 c0 6b 11 01 c0 ee 03 5e bf 7d 62 fe 3f
       -2.7557395 -2.016688 -0.86724746 1.9873806
000020 c4 c9 fa 3f fa 86 05 40 ba 95 0b 40 06 80 db 3f
       1.9592824 2.0863633 2.1810136 1.7148445
000030 7a fd 13 40 e1 df 2e bf 79 c7 09 40 2c 8e 26 c0
       2.312346 -0.6831036 2.1527998 -2.6024275
000040 47 af 1f c0 b2 1e 06 40 ec 7b 0c 40 31 98 de 3f
       -2.495073 2.0956235 2.1950636 1.7390195
000050 27 ad 02 40 41 2c a8 bf 3c b4 f1 3f 93 7e f3 3f
       2.0418184 -1.3138505 1.8883128 1.9023002
000060 b6 e2 08 40 56 e7 0d 40 17 2b f3 3f 9a 7a 22 c0
       2.1388373 2.2172446 1.8997525 -2.538733
000070 12 dc 12 40 40 97 35 c0 da e1 c6 bf b8 ad 05 40
       2.294682 -2.8373566 -1.5537674 2.088728
000080 d2 d2 1b 40 0c 15 2d c0 aa 51 0b 40 c3 58 0b 40
       2.4347425 -2.7044096 2.1768594 2.1772926
