NonSymmetryEncodingRBM/L_8_T_4.0_nonsymmRBM.pt (torch, 18317 bytes, 3 tensors)

W f4 [64, 64]
0	0x3e59d21d	0.21271558
1	0xbe533d01	-0.2062874
2	0xbe982fbd	-0.2972392
3	0xbfa24761	-1.2678033
4	0xbe0172df	-0.12641476
5	0xbef6a5cd	-0.4817337
6	0xbe6e63c4	-0.23280245
7	0x3f190e05	0.5978702
8	0x3e8ba3f1	0.27273515
9	0xbd02826e	-0.03186267
10	0xbf6d92ba	-0.9280201
11	0xbfb6c926	-1.4280136
12	0xbd789303	-0.060687076
13	0x3e5a02e0	0.21290159
14	0xbeabf107	-0.33582327
15	0xbd272954	-0.040810898
16	0x3ec119b8	0.37714934
17	0x3dbd613d	0.09247062
18	0xbebbd7ac	-0.36687982
19	0xbec2e8d4	-0.3806826
20	0xbec66a33	-0.387529
21	0x3f4d9ef3	0.8032066
22	0x3e89ef50	0.26940393
23	0x3caf3989	0.02138974
24	0x3d45c5df	0.048284408
25	0x3e115a94	0.14194709
26	0x3eab02e9	0.33400658
27	0x3e8a8fa4	0.27062714
28	0xbf80f69d	-1.007526
29	0xbe7a8b9c	-0.24467319
30	0x3e3c85da	0.18410435
31	0xbe137b2d	-0.14402457
32	0x3e94f690	0.29094362
33	0xbee061d9	-0.43824652
34	0xbf907136	-1.1284549
35	0xbf142e26	-0.57882917
36	0x3e82ce79	0.2554815
37	0x3e07a1c7	0.13245307
38	0x3dac0772	0.083998576
39	0x3f0b502a	0.54419196
40	0x3e9a0ca7	0.30087778
41	0x3e95c9e0	0.2925558
42	0xbe82b6a9	-0.25529984
43	0xbf650f8d	-0.89476854
44	0xbf55b112	-0.8347331
45	0xbee7d7ab	-0.4528173
46	0xbdf12a7b	-0.11775681
47	0xbf358668	-0.7090821
48	0xbf510109	-0.81642205
49	0xbca5449f	-0.020174323
50	0xba29c069	-0.000647551
51	0xbe72cfe3	-0.23712115
52	0xbf393cf0	-0.7235861
53	0x3f12afe3	0.5729963
54	0x3edbcd87	0.42930242
55	0x3e140ad7	0.1445726
56	0x3e45ddc2	0.19322875
57	0x3e156955	0.14590962
58	0x3f162594	0.5865109
59	0xbce0d046	-0.027443063
60	0xbe610093	-0.21972875
61	0xbe0812a9	-0.13288368
62	0x3ebfbcef	0.37448832
63	0x3f664935	0.89955455
64	0x3f03cca0	0.5148411
65	0x3d31ff62	0.043456443
66	0xbe92f97c	-0.28705966
67	0xbd475f7a	-0.048675038
68	0x3e88556c	0.26627672
69	0x3e8f238a	0.27956802
70	0x3f5ab4e9	0.85432297
71	0x3e7a7f7b	0.24462692
72	0x3eb06cc3	0.3445798
73	0xbf07fd2c	-0.53120685
74	0xbfd0fdec	-1.6327491
75	0xbf42fffc	-0.7617185
76	0x3eb2700a	0.34851104
77	0x3f223713	0.63365287
78	0x3f0889f1	0.5333548
79	0x3eaab6d4	0.33342612
80	0xbeaed97a	-0.34150296
81	0xbd766cba	-0.060162283
82	0xbf330ed9	-0.6994453
83	0xbce33177	-0.027733548
84	0x3e7192b2	0.23591116
85	0xbb4947f8	-0.0030713063
86	0xbf2744e7	-0.6533951
87	0xbef8eedc	-0.48619735
88	0x3ed4d408	0.41568017
89	0x3e489c41	0.19590856
90	0xbf3b1a0b	-0.73086613
91	0x3f22d15d	0.63600713
92	0x3e1fb8ee	0.15597889
93	0xbd8d05c8	-0.06885868
94	0x3ee3142f	0.44351336
95	0x3f0a4916	0.5401777
96	0xbf0e9b67	-0.55705875
97	0xbe9be85c	-0.30450714
98	0xbde1a9f0	-0.11018741
99	0xbe8bcd53	-0.27305087
100	0xbf839738	-1.0280523
101	0xbf4ebd0c	-0.8075721
102	0x3c93ece1	0.018057289
103	0xbeb62775	-0.35576978
104	0xbf5c5c7c	-0.8607862
105	0x3e852653	0.26005802
106	0x3f1ae9f1	0.60513216
107	0xbf5a5bf6	-0.8529657
108	0xbf2d5a29	-0.677157
109	0x3ef9ba56	0.48774976
110	0x3f5b7c3b	0.85736436
111	0x3ef0a989	0.47004345
112	0x3e904f03	0.2818528
113	0xbf09f4b4	-0.5388901
114	0xbe5fe207	-0.21863566
115	0xbf425b2c	-0.7592037
116	0xbea268ad	-0.31720486
117	0xbe9c7c6b	-0.30563673
118	0xbd221d9f	-0.03957903
119	0x3e2a67a9	0.16641106
120	0x3eef5004	0.46740735
121	0xbf5257dc	-0.8216531
122	0xbec38db4	-0.38194048
123	0x3e5f41a1	0.21802379
124	0xbd1839d5	-0.037164528
125	0xbf2d3888	-0.67664385
126	0xbf0b1528	-0.54329157
127	0x3e382a05	0.17984779
128	0xbf3f19d4	-0.74648786
129	0x3e186ba9	0.14884819
130	0xbee2c64d	-0.44291916
131	0xbc47725b	-0.012173261
132	0x3e892329	0.26784638
133	0x3ec06c8e	0.3758282
134	0x3e9c2a24	0.305009
135	0xbf430858	-0.76184607
136	0xbf63ad88	-0.8893666
137	0x3f00c31d	0.5029772
138	0x3f22c576	0.6358255
139	0x3f912e6a	1.134229
140	0x3f128f2f	0.5724973
141	0x3e5c5c65	0.2151962
142	0xbe765e38	-0.24059379
143	0xbe09fe2e	-0.13475868
144	0xbf5f1b5d	-0.8715113
145	0x3f197d24	0.59956574
146	0x3e61bf04	0.22045523
147	0x3f0be609	0.5464788
148	0x3f0badf2	0.54562294
149	0xbd6c477a	-0.057685353
150	0xbd2f4c4e	-0.04279738
151	0xbe711829	-0.23544373
152	0xbf30e12c	-0.69093585
153	0x3dd01bb4	0.10161534
154	0xbe025f20	-0.127316
155	0xbeb3c97e	-0.35114664
156	0x3ecbf690	0.3983655
157	0xbf0a6f21	-0.5407582
158	0x3cbcfd84	0.023070104
159	0xbe55607d	-0.20837589
160	0xbd76b294	-0.0602289
161	0x3e368bf2	0.17826822
162	0x3e363149	0.17792238
163	0xbe4a11bd	-0.19733329
164	0x3dcc2aa2	0.09969069
165	0x3e272d27	0.16325818
166	0x3e7450f2	0.23859003
167	0x3eeaec82	0.45883566
168	0x3dacea23	0.084430955
169	0x3e22169b	0.15828936
170	0x3f42742a	0.759585
171	0xbf200052	-0.6250049
172	0xbfd5748f	-1.6676196
173	0xbed16287	-0.40895483
174	0x3e9513e1	0.2911673
175	0x3eb5030c	0.35353887
176	0xbea89099	-0.3292282
177	0xbdab82f2	-0.08374585
178	0x3dff4c7b	0.12465759
179	0x3dd2a024	0.10284451
180	0xbf7a5da9	-0.97799164
181	0x3e6340dc	0.2219271
182	0x3ee7c2d7	0.45265839
183	0xbdac4bfc	-0.0841293
184	0xbf93a6c1	-1.1535264
185	0xbe486cd9	-0.19572772
186	0xbe966d27	-0.29380152
187	0x3ed25d11	0.4108663
188	0xbd0da32f	-0.034579452
189	0xbd250cec	-0.040295526
190	0x3e05f365	0.13081129
191	0xbfb2e030	-1.3974667
192	0xbe96f706	-0.2948534
193	0x3eeba992	0.4602781
194	0xbd3298c7	-0.04360273
195	0xbec96fb8	-0.39343047
196	0x3de0c590	0.10975182
197	0xbf22c7dd	-0.6358622
198	0xbd7d9685	-0.061911125
199	0x3e78e87d	0.24307437
200	0x3eb49298	0.35268092
201	0x3de3bbaa	0.111197785
202	0xbd431f85	-0.04763748
203	0xbe4ef352	-0.20210007
204	0x3f9f3c6f	1.2440318
205	0xbdfb63e6	-0.122749135
206	0xbe27fa18	-0.16403997
207	0x3f05c97b	0.5226056
208	0x3ec65991	0.3874021
209	0x3e4c2120	0.19934511
210	0xbef72caa	-0.48276263
211	0x3e46cd84	0.19414335
212	0x40835ae3	4.1048446
213	0x3f981530	1.1881466
214	0xbe6e140f	-0.23249839
215	0x3ea90286	0.33009738
216	0xbeadd721	-0.33953193
217	0xbe5d0493	-0.21583776
218	0xbee4bd6a	-0.4467576
219	0xbe531670	-0.20614028
220	0x3f8f5f3f	1.1200942
221	0x3eaba500	0.33524323
222	0xbe4ccec1	-0.20000745
223	0xbe123abc	-0.14280218
224	0xbb8384a3	-0.0040136143
225	0xbe9adaad	-0.3024496
226	0x3e8f561e	0.2799539
227	0x3ed81534	0.42203677
228	0x3ee77cc7	0.45212385
229	0xbebb99c3	-0.36640748
230	0x3da90602	0.08253099
231	0x3de669eb	0.11250671
232	0xbdbc70b5	-0.09201185
233	0xbf081663	-0.5315916
234	0x3e4abf19	0.1979946
235	0x3dc5fe94	0.096676975
236	0x3e686ca2	0.2269769
237	0xbe9e448c	-0.30911672
238	0x3ecbfb5d	0.39840212
239	0x3e8a6651	0.27031186
240	0x3e50a0a1	0.20373775
241	0x3e83e98c	0.2576412
242	0x3ef1e381	0.47243884
243	0xbe14f63b	-0.14547054
244	0x3e8e755a	0.27823907
245	0xbe827b43	-0.25484666
246	0xbd13b97b	-0.03606556
247	0x3c06e01e	0.008232145
248	0xbd1758fa	-0.03695009
249	0x3e912e9d	0.28355876
250	0x3e584668	0.21120608
251	0xbf05d125	-0.52272254
252	0x3edacb86	0.427334
253	0x3d27c6a7	0.040960934
254	0xbc68d254	-0.014210302
255	0x3e719b19	0.23594321

v_bias f4 [64]
0	0x3f490f9a	0.7853943
1	0x3fd31248	1.6489954
2	0x3fd63150	1.6733799
3	0x4011572d	2.2709458
4	0x3fadbe1d	1.3573643
5	0x3fcf5087	1.619645
6	0x3fe0b603	1.7555546
7	0xbf30f233	-0.69119567
8	0x3fbab388	1.4586039
9	0xbc952b36	-0.018209081
10	0x3f067437	0.5252108
11	0x3f75ea40	0.9606056
12	0x3f36fead	0.71482354
13	0x3f26d2ed	0.651656
14	0x40084b2d	2.1295884
15	0x40012fa8	2.0185337
16	0x3f36ad97	0.7135863
17	0x3eb3ea42	0.35139662
18	0x3fea4dd9	1.8305007
19	0xbf1f97c9	-0.6234098
20	0xbea0c552	-0.31400543
21	0x3f5ac797	0.854608
22	0x3f63e423	0.89019984
23	0x3fd060db	1.6279558
24	0x3fc63872	1.5485976
25	0x4004cdd8	2.0750637
26	0x3ed0e853	0.4080225
27	0x3e0d1a29	0.1377951
28	0x3f1b07b1	0.6055861
29	0x3f1f0765	0.6212066
30	0xbf20f9ab	-0.62880963
31	0x3f3c5d87	0.7358021
32	0x3fd6f6ca	1.6794064
33	0x3fd2cb1a	1.6468232
34	0x3e7efc4b	0.2490093
35	0x3f9c142f	1.219366
36	0x4001f416	2.0305228
37	0x3f7b7163	0.9821989
38	0x3fc5e924	1.5461774
39	0x3fa97f18	1.3241911
40	0x3ffc1a4b	1.9695524
41	0x40111741	2.2670443
42	0x3fcc71fb	1.5972284
43	0x3f895ec8	1.073205
44	0x3ed0b5d8	0.40763736
45	0xbd455b35	-0.048182685
46	0x3d0679a2	0.03283084
47	0x3f5f2085	0.87158996
48	0x3f212e77	0.62961525
49	0x3f9856d1	1.1901494
50	0x3f7b48e6	0.9815811
51	0x3ee026c7	0.43779585
52	0x3fd106da	1.6330216
53	0x3f5e0040	0.8671913
54	0x3ebd7360	0.37002087
55	0x40224f9d	2.5361092
56	0x3f74a223	0.955599
57	0x3face13f	1.350624
58	0x3fd01624	1.6256757
59	0x3e3a5da2	0.1819978
60	0x3fb01b23	1.3758281
61	0x40113dd0	2.2693977
62	0x3fb13629	1.3844653
63	0x3f7376af	0.9510297

h_bias f4 [64]
0	0x402aed93	2.6707504
1	0x402f6849	2.74074
2	0x3fb23c74	1.3924699
3	0xc0803853	-4.0068755
4	0x3fe90cd6	1.8207042
5	0xc06dd995	-3.7164052
6	0x400ee016	2.2324271
7	0x403a1efa	2.9081407
8	0x40824210	4.0705643
9	0x40241418	2.5637264
10	0x4038d87e	2.8882136
11	0x400dbbe1	2.2145922
12	0x40302380	2.7521667
13	0x4079f86d	3.9057877
14	0xbf3e982d	-0.7445095
15	0x3fc52889	1.5402995
16	0x3e382db5	0.17986186
17	0x40806f86	4.0136137
18	0x405959e7	3.3961122
19	0x3fd4e85f	1.6633414
20	0x406b8966	3.6802611
21	0x3ea5796a	0.32319194
22	0xbf8632cb	-1.0484251
23	0xc084dc56	-4.1518965
24	0xc03fca6e	-2.9967303
25	0x408436ec	4.1317043
26	0x401d0e90	2.4540138
27	0x405d91f5	3.4620335
28	0xc0a93ac0	-5.2884216
29	0x4083206b	4.0977073
30	0x3fe2af2f	1.7709712
31	0x3fcb1366	1.5865295
32	0xc00238ca	-2.0347161
33	0xc072a725	-3.7914517
34	0xbe912121	-0.28345588
35	0xc0ad269c	-5.410963
36	0x405b1c0f	3.4235876
37	0xc045b08c	-3.0889006
38	0x40a923e6	5.285632
39	0x402359ff	2.552368
40	0x40080a33	2.1256225
41	0x3ff1b75c	1.8884082
42	0xc0859e61	-4.1755834
43	0x4082c725	4.0868096
44	0x3f18dfbd	0.597164
45	0xc082ceda	-4.0877504
46	0xc085649c	-4.1685314
47	0x406d16ec	3.704524
48	0x3fe6551e	1.7994726
49	0xbfa55ce7	-1.2918977
50	0x3fae97df	1.3640097
51	0x405048fb	3.2544544
52	0x3fb6d44c	1.4283538
53	0x404e3556	3.2220054
54	0x40bf1b4d	5.9720826
55	0x3ff84062	1.9394648
56	0xc08c066d	-4.3757844
57	0x405ab1db	3.4171054
58	0x408515ae	4.1588964
59	0x4074c2b6	3.8243842
60	0x40a1dd69	5.0582776
61	0x40976428	4.730976
62	0x408bffd9	4.3749814
63	0xc0861c02	-4.190919
