old/NonSymmetryEncodingRBM/L_8_T_4.0_nonsymmRBM.pt (torch, 18317 bytes, 3 tensors)

W f4 [64, 64]
0.2543265 0.7601473 -0.7053484 -0.43223593 0.016829042 -0.19554597 0.713904 -0.5005271
0.4145417 0.00935054 0.03361971 -0.010794071 -0.06775014 0.10185683 0.1813199 0.31880444
-0.20050743 0.5465431 0.6206175 0.119305305 -0.42475373 0.12695141 -0.16556793 0.23886825
-0.6685188 -0.27155727 0.17114188 -0.2562319 -0.1541768 -0.59611946 -0.028169364 0.49043402
-0.118908934 0.5121917 0.83564734 -0.63714725 -0.31939155 0.043261103 -0.23031665 0.12050023
-0.15534884 0.31768602 0.2570915 0.13757493 0.38581818 0.025398612 -0.4293508 0.42554778
-0.06793084 0.24359423 -0.0819249 -0.0581799 0.2811428 0.007410115 0.36189297 0.6567352
-0.32422492 -0.043899294 0.3426358 0.4516046 0.81585926 -0.2803292 1.0977215 0.11837603
-0.029118927 0.3743065 0.22662309 0.21643083 -0.29571274 0.013316802 0.025028406 0.16761437
-0.00020814413 -0.017255565 -0.18642059 0.09233897 -0.15182576 0.25267982 0.29104006 0.032172542
-0.117160656 0.21237051 -0.079432376 -0.23905231 0.0633324 0.28079358 -0.14593218 -0.24078953
0.29803938 -0.6114824 0.53787065 -0.28129902 0.08488241 -0.2964903 -0.105159596 0.023574892
-0.2924136 -4.8792977 -1.1231902 -0.7192712 0.10256975 0.12310078 0.03556914 0.34037253
-0.12457242 -1.0142773 0.5975714 0.060449954 0.2437732 -0.12842357 0.024976494 0.0731104
0.093171366 -0.060191046 -0.06725578 0.10883833 0.080580585 -0.40483266 0.020719098 0.102153264
-0.15513371 0.10507601 0.06999808 0.34889203 0.21083482 -0.28389272 -0.13773331 0.071050465
-0.028452288 -0.21930613 1.8242587 2.3691528 0.43671834 0.7751935 -0.069358 -0.30440754
-0.012077032 -0.014177842 0.36267743 -0.506034 -0.03507531 -0.49558187 -0.17804962 -0.040322572
0.12807663 0.029622704 -0.026834479 -0.19637272 -0.058909446 -0.2985685 0.27967083 -0.13502106
-0.43990532 -0.24212047 -0.16986856 0.038611457 -0.23244324 -0.19329275 -0.28726274 0.07059022
-0.2775652 0.5820089 0.17446584 0.2115209 -0.30279765 0.459697 0.18203099 0.08665614
-0.11649314 0.07591015 0.5143268 -0.109301195 0.5205445 0.22488794 -0.023307856 0.14185633
0.3052903 -0.1731631 0.039503776 -0.29241973 -0.16458917 -0.1703949 -0.2577842 0.27539733
-0.13712282 -0.17275178 0.25824046 0.1829497 0.48787847 0.06414737 -0.20240408 0.41347367
-0.12523659 0.1792575 -0.06179488 1.1432618 3.633445 0.34609866 -0.13622437 0.25468668
-0.20855013 0.1830042 -0.112318434 -0.41518852 1.0125471 -0.08804715 0.11894868 0.14353393
0.8684823 0.16524354 0.34450474 0.18380801 -0.25962907 -0.2889977 -0.29619548 -0.12829857
0.31198704 0.06859785 -0.052411918 -0.06854932 0.011428187 -0.50013334 0.000657285 -0.16390191
-0.23648232 -0.26044747 -0.08521882 -0.007795763 0.24158807 -0.43023834 0.30666965 -0.05446322
-0.41500187 0.024097046 0.17256802 0.012266261 0.070248865 0.026358755 0.16558947 -0.14682971
0.025210848 0.011599581 -0.36401382 0.06367349 0.07065957 -0.29026577 0.20922996 -0.13141501
0.27383864 -0.27646443 0.09250093 0.19573306 0.31483507 0.045946714 0.4012505 -0.38881713
00000000: 1537 823e 0399 423f b691 34bf 074e ddbe
00000010: 0fdd 893c 343d 48be 6ac2 363f 8b22 00bf
00000020: cf3e d43e 0233 193c d2b4 093d 9dd9 30bc
00000030: 96c0 8abd 509a d03d edab 393e 563a a33e
00000040: d251 4dbe 40ea 0b3f cae0 1e3f 5756 f43d
00000050: 5279 d9be 8dff 013e a48a 29be e199 743e
00000060: 0c24 2bbf 8e09 8bbe d13f 2f3e d430 83be
00000070: 86e0 1dbe 499b 18bf 70c3 e6bc 2b1a fb3e
00000080: 8786 f3bd ff1e 033f fcec 553f 151c 23bf
00000090: 4a87 a3be 8e32 313d 21d8 6bbe d3c8 f63d
000000a0: c413 1fbe bea7 a23e 7fa1 833e 71e0 0c3e
000000b0: f689 c53e c010 d03c ded3 dbbe 66e1 d93e
000000c0: 531f 8bbd c470 793e 3ec8 a7bd 0c4e 6ebd
000000d0: f3f1 8f3e 8dd0 f23b 094a b93e cc1f 283f
000000e0: cf00 a6be bfcf 33bd f66d af3e b838 e73e
000000f0: 27dc 503f 4f87 8fbe 2382 8c3f 226f f23d
00000100: d18a eebc 1aa5 bf3e e20f 683e 0ba0 5d3e
00000110: a967 97be b72e 5a3c 5f08 cd3c 1aa3 2b3e
00000120: 4441 5ab9 8b5b 8dbc 0ae5 3ebe 371c bd3d
00000130: 3678 1bbe 405f 813e 3403 953e 5bc7 033d
00000140: edf1 efbd a877 593e 71ad a2bd 21ca 74be
00000150: 6bb4 813d 2dc4 8f3e 3f6f 15be 8891 76be
00000160: 9e98 983e 1c8a 1cbf e4b1 093f 6d06 90be
00000170: d4d6 ad3d 94cd 97be ea5d d7bd 2220 c13c
00000180: 3cb7 95be 3523 9cc0 b2c4 8fbf 2822 38bf
00000190: 1710 d23d 431c fc3d f2b0 113d 4f45 ae3e
000001a0: d31f ffbd d7d3 81bf 70fa 183f 5f9a 773d
000001b0: af9f 793e 7881 03be 819b cc3c e8ba 953d
000001c0: a1d0 be3d e38a 76bd 66bd 89bd a1e6 de3d
000001d0: 6f07 a53d 3a46 cfbe 19bb a93c bb35 d13d
000001e0: 5fdb 1ebe 1732 d73d 275b 8f3d faa1 b23e
000001f0: 15e5 573e 635a 91be f609 0dbe e882 913d
00000200: c614 e9bc c991 60be 4f81 e93f 33a0 1740
00000210: 8c99 df3e 1573 463f 910b 8ebd 4edb 9bbe
00000220: bede 45bc 2e4a 68bc dbb0 b93e 728b 01bf
00000230: 21ab 0fbd e8bc fdbe a452 36be 4829 25bd
00000240: 8526 033e 50ab f23c fbd3 dbbc ee15 49be
00000250: 084b 71bd f8dd 98be 0431 8f3e f642 0abe
00000260: 453b e1be 6eee 77be 06f2 2dbe 0c27 1e3d
00000270: 9a05 6ebe 89ee 45be 1a14 93be 9b91 903d
00000280: 071d 8ebe 89fe 143f 2ca7 323e ef98 583e
00000290: 4b08 9bbe 685d eb3e 5566 3a3e c678 b13d
000002a0: f593 eebd c876 9b3d ecaa 033f 4ed9 dfbd
000002b0: 6842 053f 0649 663e 1ef0 bebc c942 113e
000002c0: 034f 9c3e ab51 31be b6ce 213d 0ab8 95be
000002d0: 108a 28be 007c 2ebe 4afc 83be e100 8d3e
000002e0: ed69 0cbe d8e5 30be 1838 843e 2b57 3b3e
000002f0: 35cb f93e b25f 833d 0443 4fbe d2b2 d33e
00000300: 053e 00be 478f 373e a11c 7dbd 6756 923f
00000310: 5d8a 6840 d833 b13e 677e 0bbe 4b66 823e
00000320: 2a8e 55be 7465 3b3e 3507 e6bd 9793 d4be
00000330: 259b 813f 1052 b4bd 5e9b f33d 8ffa 123e
00000340: db54 5e3f 9a35 293e ed62 b03e 2b38 3c3e
00000350: 1aee 84be 82f7 93be efa6 97be b360 03be
00000360: c4bc 9f3e 087d 8c3d e1ad 56bd 9663 8cbd
00000370: 4a3d 3b3c bd08 00bf a64d 2c3a e7d5 27be
00000380: 6c28 72be 5f59 85be 3487 aebd 9a73 ffbb
00000390: dd62 773e 3348 dcbe ce03 9d3e d314 5fbd
000003a0: 207b d4be 2b67 c53c acb5 303e 6df8 483c
000003b0: a3de 8f3d 51ee d73c 4990 293e 875a 16be
000003c0: fb86 ce3c 2b0c 3e3c 0560 babe 3f67 823d
000003d0: f7b5 903d b79d 94be 6140 563e a891 06be
000003e0: 9434 8c3e bf8c 8dbe 2171 bd3d 3f6e 483e
000003f0: 1032 a13e 9f32 3c3d b570 cd3e 0a13 c7be

v_bias f4 [64]
1.7115275 4.043286 1.9416643 0.48345748 -1.0896055 -1.9931378 0.7929409 -0.76059693
2.120351 1.6151927 1.7788026 -1.0049658 -0.13720073 -0.27000663 2.9896204 2.1023157
-0.2641915 2.7784584 2.0283766 1.3351271 0.8016039 -0.30618483 2.4406805 1.1176088
2.08746 3.7152884 2.1500278 1.8037624 -2.4731433 0.057197142 0.5201816 2.2613628
2.0968964 3.1178517 2.040341 -1.16419 1.3565612 1.2631688 -2.8377223 1.9068499
-1.653185 -0.12198558 2.806913 1.3051449 2.4639416 1.0413111 2.7129316 0.71412677
0.9732768 3.1860945 2.8952029 2.6666536 1.726273 0.181242 1.8516827 2.456878
4.187358 2.363202 2.5495844 1.8891591 1.5843931 2.1995332 3.2998548 2.6064346
00000000: 5513 db3f 9962 8140 7588 f83f bd87 f73e
00000010: 3178 8bbf 241f ffbf 2dfe 4a3f 7bb6 42bf
00000020: d5b3 0740 a2be ce3f ceaf e33f b8a2 80bf
00000030: 597e 0cbe 4f3e 8abe f155 3f40 578c 0640
00000040: 1c44 87be 43d2 3140 ecd0 0140 72e5 aa3f
00000050: ea35 4d3f 42c4 9cbe 1c34 1c40 ce0d 8f3f
00000060: f298 0540 49c7 6d40 0e9a 0940 b0e1 e63f
00000070: fb47 1ec0 8d47 6a3d 9f2a 053f 2bba 1040
00000080: 8d33 0640 e28a 4740 f294 0240 2e04 95bf
00000090: cca3 ad3f 84af a13f 3e9d 35c0 a813 f43f
000000a0: 919b d3bf 93d3 f9bd 76a4 3340 fd0e a73f
000000b0: 38b1 1d40 af49 853f aca0 2d40 03d1 363f
000000c0: ab28 793f f9e8 4b40 014b 3940 74aa 2a40
000000d0: 83f6 dc3f 8197 393e f003 ed3f 7d3d 1d40
000000e0: d6fe 8540 b43e 1740 642c 2340 f7cf f13f
000000f0: 65cd ca3f 27c5 0c40 d230 5340 d3cf 2640

h_bias f4 [64]
-2.6548305 2.951924 -2.3615406 -3.037659 3.0210445 -4.868193 0.60161823 5.002456
5.7034745 4.2643094 2.4476085 -5.044744 -5.3023715 3.5899599 -2.783171 1.2432569
2.0178225 5.022921 2.4306056 2.8881507 2.8159988 3.0177119 2.2583196 -3.6053522
6.0882335 2.0922816 -2.541538 3.7923586 3.696885 4.1445937 1.8669895 4.5417295
-5.3368587 1.8249825 3.5187352 -5.577454 0.91739935 4.953709 0.74437404 3.4844167
4.7663474 3.0250475 0.69295233 2.0108707 3.9739153 5.3863764 -3.6123264 -3.5999622
5.126162 4.075034 1.988138 -5.348041 3.287604 2.444253 -3.9903402 4.135687
5.9866824 -4.156718 4.3704076 0.35504183 3.9002826 -2.9771748 5.9536347 0.9797519
00000000: bee8 29c0 53ec 3c40 7b23 17c0 0169 42c0
00000010: cb58 4140 3dc8 9bc0 a703 1a3f 1f14 a040
00000020: dd82 b640 3975 8840 9ea5 1c40 8b6e a1c0
00000030: 07ad a9c0 e7c1 6540 791f 32c0 0b23 9f3f
00000040: 0124 0140 c5bb a040 0b8f 1b40 76d7 3840
00000050: 5339 3440 3122 4140 4f88 1040 17be 66c0
00000060: cfd2 c240 f1e7 0540 8fa8 22c0 01b6 7240
00000070: c499 6c40 83a0 8440 83f9 ee3f d955 9140
00000080: 8cc7 aac0 0799 e93f f532 6140 817a b2c0
00000090: afda 6a3f c984 9e40 4c8f 3e3f af00 5f40
000000a0: eb85 9840 619a 4140 5365 313f 1bb2 0040
000000b0: a154 7e40 325d ac40 5b30 67c0 c865 66c0
000000c0: 8509 a440 ae66 8240 4e7b fe3f 2723 abc0
000000d0: 1b68 5240 a46e 1c40 bc61 7fc0 8c57 8440
000000e0: e792 bf40 d503 85c0 61da 8b40 0bc8 b53e
000000f0: 3b9e 7940 088a 3ec0 2d84 be40 05d1 7a3f
